checkpoint.pth (torch_old, 28333 bytes, 6 tensors)

fc1.weight f4 [64, 37]
00000000: 8bba 8abd a093 21ba 89cd a7bc 5324 15bc
00000010: 41f0 71bb d2a9 423d 9a32 36bd 7e90 bc3d
00000020: 62a2 613d 7741 8fbc 5dec 3b3e e0f6 aebe
00000030: 5f2d f0bd 8292 41be ad52 63bf a7cf f53d
00000040: 8ae3 afbd 48ae 2c3e f013 9cbd 461d aebd
00000050: 7b04 763d fa96 db3c d270 c63d f380 fc3d
00000060: 4b17 0f3e 7047 633d b19e 9b3d bbcd 2abe
00000070: 58d5 b3bc f6cc 37be 6fda 97bc b0c3 33bd
00000080: 441d be3c 6508 293d 3362 bcbd 2e4a 06be
00000090: 4612 87ba 947a 873d 465d 293d 2b5e f43d
000000a0: f106 a4bc c394 10be a869 0fbd 45c3 42be
000000b0: 9041 e43b e8bf 59be 5310 94be 1805 153c
000000c0: 0e73 59bd 678b 0f3d d4e9 093e ede7 5a3d
000000d0: d73e cd3d d0e0 ff3d 556e 68bd 20f9 d3bd
000000e0: 62f4 b4be 7243 06be 44b7 5bbe 643d ebbd
000000f0: 80f7 173e 047e 173e 745a 7b3c df98 bf3d
00000100: 92fb 08bd 5ba9 87be 7a16 75be be91 be3d
00000110: bb1b b0bd ecd6 ed3d a37f 8cbc 18c0 193e
00000120: 13c3 4c3d 0d54 053d 69ca b13d 7279 ce3d
00000130: a629 a73d 33ca 153e 9c3b 1abe 8b09 16bf
00000140: ae92 383e c4f0 583e b1e9 ca3d 2432 f1be
00000150: 4509 6ebe b085 dc3d 9360 0b3d bd5b 1a3e
00000160: f977 263e f421 f3bb 3d67 673d 49f8 af3d
00000170: ffac f73b bddc 823d 2f09 12bf 4bc4 1f3e
00000180: bfce 543e a4fe 90bd e4b8 bcbe b20d 36be
00000190: 4901 3d3e 3ff0 bf3d aadf aa3d 2262 0bbb
000001a0: 4b30 ccbe 6982 0a3e 3eb4 8dbd 823c f9bd
000001b0: 9c1a 91be b6ff 91bc 3082 da39 4477 18be
000001c0: 6bec 193e 23ff 8c3e d6c7 dd3d bb32 00bf
000001d0: b3d8 2ebb 0492 16be 9254 353e ca19 15bd
000001e0: d6f9 9c3d c6c2 bd3d 332c ce3c 6a8c f73d
000001f0: 1ae4 a8be 0d8e 8cbe c6e9 2f3d 0b1a a4be
00000200: 2079 e9ba 077d 18be ee92 f4be 0581 f53d
00000210: 18c3 5abe 18a7 f13c 3f97 f3bd c2d0 ebbe
00000220: 5ad0 3cbe cc58 e4bd 284e ea3d f707 803e
00000230: 38b9 7b3e bc59 163e e8de fa3d 78b1 5cbe
00000240: 45e7 b6bc 1356 a6bf e112 abbd baad 89bb
00000250: 000a ebbc 116a 36be 7577 b0bd 97bc 3cbe
00000260: 1de0 c6bd 4553 803e f534 113e 0c0f a8be
00000270: 3b22 51be 4a85 85bf a318 01be 7057 903c
00000280: cb1f a5bd a314 453d 054e 5cbd 0431 17be
00000290: 1c22 2cbc 77a3 ef3b 711d 9f3d 5fe4 673e
000002a0: 7008 2ebe fbd3 24bc 9d71 d33c 5e80 f93d
000002b0: fd51 933e a9f9 30bd 4c98 c53c 56e7 db3d
000002c0: adcd ca3d 193d bf3e a848 2c3e c745 37be
000002d0: affe 85bc 9714 55bd 9b21 90be f493 8bb9
000002e0: 2132 813b ac6f 953d d9e3 51bc 94a0 243b
000002f0: 3b23 07bd 1d04 0c3c d8bb 9b3e 7b16 a4bd
00000300: ec6e 08bf d6d1 09be d78d 85bf 6477 a1bb
00000310: 0add 8fbd 044a e1bb 5c84 c1bd 509c 793e
00000320: 476f 643d 91d7 793c d570 14bc 990b 7ebd
00000330: d921 55be 66c7 083e 5f9f 783d 0ae6 8d3d
00000340: e964 fd3d dde4 1e3e 772d 423d 4dc5 40be
00000350: d9f8 713d a250 583d 4401 6cbd 7673 713d
00000360: 8640 0fbc 08b7 c2bc fbf6 643b eb72 aabd
00000370: eb7b debb 39a1 b93a 9866 0d3e 63d5 97be
00000380: 40de 3fbd 2fbf d1bd 913f 07bf dce2 01bd
00000390: 212e 36be 690d 6d3d dbdb 33be a436 f53e
000003a0: b706 a2bd b68d 443e 4f67 413e fb39 f1bd
000003b0: f609 8bbe 149e a4bd 60c3 babd 46ea 153d
000003c0: 8cd6 3dbd 272b 563e 9137 05be edd7 523d
000003d0: ed65 fe3d fc15 9ebe e536 b4bc 9c89 3bbe
000003e0: 6bf5 2b3b 2362 e7bc 53de 93bd 92f0 2c3e
000003f0: 4e74 afbc 07b4 b03d 6e0a 55be a92b 303d
-0.067738615 -0.00061636604 -0.020483749 -0.009102899 -0.0036916884 0.047525235 -0.04448185 0.09207247
0.0550865 -0.01748727 0.18351884 -0.34172726 -0.11727404 -0.18903545 -0.8879803 0.12002497
-0.085883215 0.16863358 -0.0762099 -0.08501677 0.060062867 0.02680539 0.096894875 0.123292826
0.1397373 0.05548805 0.07598627 -0.16680042 -0.021952316 -0.1794928 -0.018536774 -0.043887794
0.023207314 0.04126777 -0.091984175 -0.13114235 -0.0010305129 0.06615177 0.041348718 0.119320236
-0.020022841 -0.14119248 -0.03501287 -0.19019802 0.0069658235 -0.21264613 -0.28918704 0.009095453
-0.05308824 0.035045054 0.13468105 0.053443838 0.100217514 0.124940515 -0.056745846 -0.10350251
-0.353427 -0.13111666 -0.21456629 -0.11486319 0.14840508 0.14794165 0.01534139 0.0935533
-0.03344304 -0.26496395 -0.23934355 0.09305142 -0.08599039 0.11613259 -0.017150706 0.15014684
0.049990725 0.03255086 0.08681185 0.100817576 0.08162241 0.14627914 -0.15061802 -0.5860831
0.18024704 0.21185595 0.09907854 -0.47108567 -0.23245724 0.10767686 0.034027647 0.15074058
0.16256703 -0.007419819 0.05649494 0.085922785 0.0075584645 0.06389759 -0.57045263 0.15602224
0.20781992 -0.07079819 -0.3685981 -0.17778662 0.18457521 0.09371995 0.08343442 -0.0021268209
-0.39880595 0.1352631 -0.06919144 -0.12169744 -0.28340614 -0.017822128 0.00041677197 -0.14889246
0.15031593 0.27538404 0.10829131 -0.5007741 -0.0026679456 -0.14704138 0.17708042 -0.036401547
0.0766484 0.09265666 0.02516756 0.12087329 -0.32986528 -0.27452126 0.042947553 -0.3205112
-0.0017812587 -0.14891444 -0.47768348 0.11987499 -0.21363485 0.029498622 -0.11894082 -0.46057707
-0.18438855 -0.11149749 0.11440688 0.25006077 0.24582374 0.14682668 0.12249547 -0.21552074
-0.022327075 -1.2995018 -0.0835321 -0.004201618 -0.028691292 -0.17813899 -0.086165346 -0.18431316
-0.09710715 0.2506353 0.14180358 -0.3282398 -0.20423214 -1.0431302 -0.12607054 0.017619818
-0.08062705 0.048115384 -0.053785343 -0.14764792 -0.010506179 0.0073131877 0.077692874 0.2264571
-0.16995406 -0.010060306 0.025811011 0.12182687 0.2877349 -0.043206844 0.024120472 0.10737483
0.09902511 0.373513 0.16824591 -0.17897712 -0.016356794 -0.05202159 -0.2815064 -0.0002662238
0.0039427434 0.0729669 -0.012810671 0.0025120126 -0.032992583 0.008545903 0.3041675 -0.080121
-0.53294253 -0.13458952 -1.0433911 -0.0049275625 -0.07024582 -0.0068752784 -0.09449074 0.24376035
0.055770185 0.015249149 -0.009060104 -0.06202278 -0.20813693 0.13357314 0.060698863 0.06928642
0.12372763 0.15516992 0.04740664 -0.18825264 0.05907521 0.052811272 -0.057618394 0.058948003
-0.008743411 -0.023768917 0.003493725 -0.083227 -0.0067896745 0.0014162428 0.13808668 -0.2965499
-0.046842813 -0.102415435 -0.5283137 -0.03171049 -0.17791034 0.057874117 -0.17564337 0.4789325
-0.07911437 0.19194683 0.18887065 -0.11778637 -0.27156037 -0.080379635 -0.09119296 0.036600374
-0.046347186 0.20914899 -0.13009478 0.051475454 0.124217845 -0.30876148 -0.021998832 -0.18314213
0.002623881 -0.028245037 -0.07220139 0.16888645 -0.021417763 0.086280875 -0.2080476 0.043010388

fc1.bias f4 [64]
00000000: 1a73 fe3d 96a6 3cbd ea29 08be c59d e139
00000010: be53 433e 35ea 19bc 815b a3bd bf40 a73d
00000020: 32ab 2a3c 07ea 5abe 6253 f93d f2a4 6b3e
00000030: fea5 f03d 2d73 0b3d 575f 463c 4165 b4bd
00000040: bb32 d03c c700 d9bd aef9 74bd f8a5 54be
00000050: 4ed1 6bbd 7ccf 893d 8805 8c3c b63e b0bd
00000060: 60d9 1bbe 0841 353e 18c8 f2bb a856 49be
00000070: 0083 283e dc3e a43d 15c3 86bc ed65 2dbe
00000080: 9f1b 323e c5f9 743d 893c 1ebe e414 6c3d
00000090: 2080 58bd 3607 1e3d 709d c2bc a170 35be
000000a0: e5d7 07be a456 c5bd 1e77 17be ba71 563e
000000b0: a35f fcbb ef60 7abd be34 e0bc 9506 35be
000000c0: 1acc 02be 11a4 73bc 30ac 17be d2c6 9f3d
000000d0: 7762 bbbd 73a3 41be d1c5 32be 4550 c0bc
000000e0: 68c6 da3d ac3f 0abd 53ae 41bd 9435 fbbd
000000f0: 0cd8 8f3c b739 7e3c 3a12 c93c 3a49 8e3c
0.12424298 -0.046057306 -0.13297239 0.00043032892 0.19074914 -0.009394218 -0.07976437 0.08166646
0.010416793 -0.21378337 0.12174107 0.2301214 0.117504105 0.034045387 0.012107692 -0.08808375
0.025414815 -0.105958514 -0.059808426 -0.20766437 -0.057572655 0.06729028 0.017092481 -0.08605711
-0.1521964 0.17700589 -0.007409107 -0.19661963 0.16456223 0.08019802 -0.016450444 -0.16933413
0.17393349 0.05980851 -0.1545278 0.05763711 -0.052856565 0.038581096 -0.023756713 -0.17718746
-0.13265951 -0.09635666 -0.14791533 0.2094182 -0.0077018305 -0.0611276 -0.0273689 -0.17678292
-0.12773171 -0.014870659 -0.14811778 0.07801594 -0.0914964 -0.18910007 -0.17458273 -0.023475775
0.10682374 -0.03375213 -0.04728539 -0.122660786 0.017559074 0.01551669 0.024544824 0.017368902

fc2.weight f4 [64, 64]
00000000: 7ddd a7bb a74a 463d 4258 85be ed43 a1bc
00000010: 8f07 71be 3b2a 7fbd e2c0 863e 4759 b0be
00000020: c163 ca3d 7bfa d9bd c230 233d 7299 863b
00000030: dee6 3fbe d80d af3c 5a7b f5bd eedf fb3c
00000040: cd2a 39be 4556 b8be 2c8b 8abe 908a 843d
00000050: c56f fbbd defd 063e a4ec 88bd 8052 9abd
00000060: 92d6 61bd 1ba3 80bd 5175 73be f6d9 8c3d
00000070: ea42 b8bb 9f01 acbe cb7b 653e e51d 413c
00000080: cc57 9a3d b5b1 7fbe 7599 833d 57e4 40bc
00000090: c2d5 34bd 8192 01bf 78ad 67be aef6 4ebe
000000a0: b43c 7dbe 1896 a23c cfb2 523e 973e 8d3d
000000b0: 2385 8cbe 37e4 d4bd fb74 87be ce41 45bc
000000c0: 00c1 e63c a26c 31bd 1a53 0e3d 032b eebd
000000d0: 2041 00be 71a4 693e 05d9 7ebd b835 3ebd
000000e0: 209c 073e e338 1ebe 740e 9ebe bba6 83be
000000f0: b8fe 623e e3bf 403f 62da babe 7f63 c33c
00000100: 4638 dd3d e655 813d 0ec1 debe ddc9 573e
00000110: 8876 963d ff08 c93d 7572 afbe 1e51 7abd
00000120: 3e99 0dbd c3bf 443b 1acc 6e3d 16d6 7d3e
00000130: 8ae3 cbbd 22bf ad3d 6eb9 d2bd aab7 3f3e
00000140: 269f 633e ef3d ad3d 3254 8dbe 81db 84bd
00000150: 3d0f c13c e1a6 45be edd6 66bc 3c35 0ebe
00000160: 7150 adbd f9f4 403d 75aa 28be 1317 2ab9
00000170: d8ca eb3d 9c32 91be 2f1e 8c3d 2718 c63c
00000180: d59c 72bd 565e dd3d e941 673e c763 07be
00000190: d198 9fbd 87a2 28be 4156 aa3e f628 9abe
000001a0: bdad 88bb c5bc 473e e57c 643d a74e c4bd
000001b0: 3eb9 60bd 5feb e6bc 6be1 03be 6fc0 a2bd
000001c0: 1659 ac3c 1129 aabc 2585 bbbb 882a 303d
000001d0: ef43 8ebd 2ad2 5e3d 5949 a9bd 6140 5bbc
000001e0: cb48 14be 9e17 96bd 3fb0 a23e 67f4 613d
000001f0: 97b5 8dbe 01b0 56be 8558 d1bd 6dc1 46be
00000200: 1019 5dbe 8367 7cbe 4b5f b53d 9254 9dbd
00000210: 1f10 39bd 94ad 74be 08d2 7dbe 239a 48bd
00000220: 70cc f63c 166c aebd 8076 a9bd 2b5f 30be
00000230: 7b34 f2bd e51b b73d fb30 bc3d 3b2f 393c
00000240: 480a 74bd 8e8f b6bd 8ba5 f83d b6ad d8bb
00000250: 1741 bbbe 4f5a 973e 8999 1f3b ea2c 003e
00000260: 5808 8ebd 7917 063e e649 753d 8df2 40bd
00000270: ea93 c7bd 6c73 8cbd d34b e8ba d716 833d
00000280: ce60 c0bc f163 56bd e477 cbbe c618 8cbb
00000290: ba32 013e 915e 40bb 8dc6 0a3f 3a8b d6bc
000002a0: f2d0 d23d 5a3b 943e 6f40 74be 39a7 aebd
000002b0: 90b8 bc3d aae9 db3d 84fc a0bd d73f 573d
000002c0: e5d4 383e 60d2 f5bd 8cc3 e3bd 9f23 b83c
000002d0: 8882 9fbe 9d08 933e cab1 6cbe 1a07 813d
000002e0: 3572 46bd d1c0 d9bd 9467 a2bd 7863 9c3c
000002f0: 7655 ee3b 8e63 003d cc3c c33c 0480 503d
00000300: 787c 803e fee1 8fbc 6ec0 b2bd 17c2 07be
00000310: 1049 8c3d 2bae 86be ec6d 033d 56b8 3fbd
00000320: 983a bd3c b5a7 0b3e 61c9 e73e 61ad 5bbd
00000330: e34a 25be 0a29 5bbd 31ab 21be bc68 1eb6
00000340: 0820 89be bd65 b33c f440 ddbd b825 c5be
00000350: ae75 11be 550a 4fbe 0ea0 153e b290 153d
00000360: 4a2e 7dbd f586 b13d 1871 083d 8510 bfba
00000370: 9c35 f63d 64a9 36bf 29d4 a53e 5036 6b3c
00000380: d6d5 f2bd b5be 21be f97d a73e fd81 2b3e
00000390: 328a babd d4b1 89be 9fa0 8c3d 17aa 30be
000003a0: 1ef9 7ebe 5a8d 3d3e 18f3 7f3e 189a ad3d
000003b0: 2560 7a3e b060 acbd 7ab0 a4bd 57ec 273d
000003c0: 23a8 163e 2754 103e ddd5 11bf 3276 e4bc
000003d0: 0aef 153e fff3 f4bd c124 003d ce8b 293e
000003e0: 139e 49be f768 49bd e24d 4abe e069 913e
000003f0: 08bc 86be 7008 8ebe ebd1 ebbd d5eb 81be
-0.005122839 0.048411038 -0.26043898 -0.01968571 -0.2353804 -0.062296133 0.26319033 -0.34443113
0.09882308 -0.106434785 0.03984142 0.0041076476 -0.18740413 0.021368906 -0.11986418 0.030746426
-0.18082733 -0.36003318 -0.27059305 0.06471741 -0.12277178 0.1318278 -0.066857606 -0.07535267
-0.05513627 -0.0628111 -0.23775221 0.0687751 -0.005623211 -0.33594987 0.22410505 0.011786913
0.07536277 -0.24970134 0.06425754 -0.01177319 -0.044149168 -0.5061417 -0.22624767 -0.20211288
-0.24730188 0.01984696 0.20576023 0.06896704 -0.27445325 -0.10395091 -0.26456437 -0.012039615
0.028168201 -0.04331649 0.03474722 -0.116292976 -0.12524843 0.22816636 -0.062218685 -0.04643795
0.1324315 -0.15451388 -0.30870402 -0.25713143 0.2216748 0.75292796 -0.36494738 0.023851154
0.10801749 0.06315212 -0.43506664 0.21073098 0.07346827 0.09816169 -0.3426701 -0.061112516
-0.03456997 0.0030021525 0.058300115 0.24788699 -0.09955509 0.08483721 -0.10289274 0.18722406
0.22228679 0.084590785 -0.27603298 -0.064871795 0.023566836 -0.1930194 -0.014089328 -0.13887495
-0.084626086 0.047108624 -0.16471274 -0.00016221059 0.11513299 -0.28358924 0.068416946 0.024181439
-0.059231598 0.10809009 0.22583736 -0.13221656 -0.07792819 -0.1646825 0.33268932 -0.30109376
-0.004171102 0.19505604 0.05578317 -0.09585314 -0.05486416 -0.028188406 -0.12878959 -0.0794686
0.021038573 -0.020771535 -0.005722659 0.04300931 -0.06946551 0.054399647 -0.08265943 -0.013382048
-0.14480893 -0.07328723 0.3177509 0.05516472 -0.27677605 -0.20965578 -0.10221962 -0.19409724
-0.21591592 -0.24648862 0.08856066 -0.07682146 -0.04518139 -0.2389434 -0.24787152 -0.04897512
0.03012678 -0.085167095 -0.08274555 -0.17223804 -0.11826416 0.08940867 0.0918903 0.0113027645
-0.059580117 -0.089141 0.1214095 -0.006612505 -0.36573097 0.29561087 0.0024352989 0.12517133
-0.06935185 0.13094892 0.05988493 -0.047106314 -0.09745009 -0.068579525 -0.0017722793 0.06400841
-0.02348366 -0.052341405 -0.39739907 -0.004275414 0.12617007 -0.002935324 0.54209214 -0.026189435
0.102937594 0.28951532 -0.23852704 -0.08527989 0.0921489 0.10737927 -0.078606635 0.052551117
0.18049963 -0.120030165 -0.11121282 0.022477923 -0.31154275 0.2871751 -0.23114696 0.06300183
-0.04844876 -0.1063248 -0.07929912 0.0190904 0.0072733713 0.031344943 0.023832701 0.050903335
0.25094962 -0.017563816 -0.08728109 -0.13257633 0.06849873 -0.26304755 0.03208725 -0.046806656
0.023099229 0.13638194 0.45270827 -0.053632144 -0.16141848 -0.053505935 -0.1578796 -2.3604798e-06
-0.2678225 0.021899099 -0.108034045 -0.3850534 -0.14205047 -0.20218785 0.14611837 0.036514945
-0.061811723 0.08668319 0.03331098 -0.0014577067 0.12021944 -0.7135222 0.32388428 0.014356211
-0.11857192 -0.15795405 0.32713297 0.16748805 -0.0910839 -0.26893485 0.068665735 -0.17252384
-0.24899718 0.18510953 0.24995077 0.08476657 0.24450739 -0.08416879 -0.08041473 0.040996876
0.14712577 0.14094602 -0.56966954 -0.027888391 0.14641967 -0.11960601 0.03128505 0.16557238
-0.19689207 -0.049172368 -0.19756272 0.2840109 -0.2631533 -0.27740812 -0.11514648 -0.25375238

fc2.bias f4 [64]
00000000: 10b0 13bc e6cd 62bb 6f14 0d3e 45b2 3abd
00000010: 53ae 2f3e 421c f0bd 61c2 1abd ddd4 bfbc
00000020: 5ba3 e3bc 9b3b d33e 9035 e1bd 0449 793e
00000030: c642 583d 8b0e d9bc 315a 99bc 56a9 f13d
00000040: 8817 fb3c 81e9 053e 2a55 1fbd b61d 473e
00000050: 5ee1 7d3e d3b3 f03e 1bc5 94bd c086 f8bd
00000060: 6b20 8ebc 591a 9bbd 1cdf e43d 5f41 a3bd
00000070: b7cf 8fbd bb0e 913e db57 c73d dc60 a53d
00000080: 953d bd3d 5509 a13e 8e45 703d b6a5 14bc
00000090: 0dac e1bd 5a3a 283c bb73 3c3e fad7 923c
000000a0: 7018 1cbe 4e57 ec3e 06d5 b13e 9e3c bcbd
000000b0: 2da8 e43d 1c10 05be b864 3b3e 5347 b9bd
000000c0: f753 d6bc 1cee d5bc 4ece 15be 5b5b ac3e
000000d0: 9563 41bd b462 2bbd 2980 a33e 7628 54be
000000e0: e2a5 8abe e41f 49be 420d 2cbb 6032 15be
000000f0: de8a 8d3c 0c68 713e d014 033e b3d8 98bd
-0.009014145 -0.0034607588 0.13777326 -0.045580167 0.17156343 -0.1172414 -0.03778303 -0.02341693
-0.027787855 0.41256413 -0.10996544 0.2434426 0.052798055 -0.026496192 -0.018719764 0.117998764
0.030650869 0.13077356 -0.03889958 0.19444928 0.24793002 0.47012195 -0.072641574 -0.121350765
-0.017349442 -0.07573385 0.11175367 -0.07971453 -0.0702204 0.2833155 0.09733554 0.08075115
0.092402615 0.31452432 0.058660083 -0.009072712 -0.11019144 0.010267818 0.18403523 0.017925251
-0.15243697 0.46160358 0.34732836 -0.09191249 0.111648895 -0.12994426 0.1830014 -0.09046807
-0.026163084 -0.026114516 -0.1462948 0.3366345 -0.04721411 -0.041842178 0.31933716 -0.2071856
-0.27079684 -0.19641072 -0.002625302 -0.14569998 0.017278131 0.23574847 0.12800908 -0.07463207

fc3.weight f4 [4, 64]
00000000: faeb c33e f7f2 4f3e 9f2b cb3d 4371 9a3e
00000010: d786 8e3e 0e3f 893e 648b 29bd 474a a0be
00000020: bae5 e5bb b3c1 043e ca44 52be 0266 ad3e
00000030: 149b a73d edf7 673e f948 20bd c95c 05bd
00000040: 670d ce3d d258 8c3e 27a0 793e 31f5 303e
00000050: d2a1 e73d 489c 4f3e f2e9 30bd 60bb 55be
00000060: 996d cdbe f814 143e 9fbb 18be 693c 58bd
00000070: 068b 063e 4178 143e 1087 4bbe e784 fc3d
00000080: 8f6e cf3e 0046 1a3e c2ba 9e3d 5021 9ebd
00000090: 0181 81bd 0cf4 3e3d d0c1 473e ae1e a13c
000000a0: 60c4 a43d 2aa4 213e 9ba4 123e 7c37 3a3c
000000b0: ff15 4c3e d8f8 f2bd 7854 f03d 5198 3d3e
000000c0: 8110 903d a4e5 893e 4f68 84be 0d11 933e
000000d0: bba4 0cbe 8aa6 e23e 55ee c53d c822 68be
000000e0: d869 36be d76b 16be 7289 04bd 34aa b1be
000000f0: 5366 70bc 100c 0a3e a06d 963d 683d 003d
00000100: 88fa 6a3e 979f 413e e51f a53e 6aac 153f
00000110: f7f4 863e 52be aa3e eac5 d83d 1485 9bbe
00000120: fb6c 64be d7ad e43d 9620 10be 6a5d 3e3e
00000130: 195b ac3e 9279 7d3e b062 2b3e 9e8b 023e
00000140: 73c9 463e b865 443e 1eaa f93e 6027 1d3e
00000150: 7808 143e 9fac 893e c201 45be 5962 d0bc
00000160: f990 f13d e9ad 1c3e 636f 2e3e f6aa 633e
00000170: 4ef8 6cbd 01f9 113e 6d32 433e d645 593e
00000180: 0f58 653e 9411 023e b2da 253e 2af3 9f3d
00000190: d648 65bd 9ad5 b4bd 6dc7 453e a369 423e
000001a0: 6dba e03d 1fb4 2f3e a49c 5e3d 2a95 b9bd
000001b0: 59d7 a83d c018 24be 08de 073e 906f 62bd
000001c0: d49d d73e 2b26 b53e 5640 07be 0c88 213e
000001d0: 94db 3a3e 0008 0e3f a450 993d 2bc8 b1bd
000001e0: 129c 06be 833e ddbd b0a4 83be 231f c3be
000001f0: 5b90 d03b f100 e53d 029d 973d 31d3 91bd
00000200: ca35 7f3e 6176 6d3e e6c3 db3e 6ef4 0c3f
00000210: 3ce6 893e ad4b 893e 64d6 13be be21 00be
00000220: b4c0 a3bd db02 ee3d 4f82 e0be 1e55 7a3e
00000230: e607 bc3e 7279 0d3d adb2 ab3d 708d 513e
00000240: 1ab2 a2bd 2065 7d3d f6fb 46bd b646 bb3c
00000250: 1176 0a3e 3ff9 843e 00b4 fdbe 387d 5a3e
00000260: cbe4 98bc b592 853e a819 97be 73b5 45be
00000270: 8c22 143e de00 583e 9ae3 a83e a53f 1bbd
00000280: 2e77 2d3e 1ed1 423e 8b52 853e 3553 8d3e
00000290: a070 a1be 577a 2e3e ebfc 6d3e 01a8 493e
000002a0: a996 113d 1fec 1f3e 4088 063e 650a c6bd
000002b0: e98b 113e dbc1 e6bd 1439 153e d069 903e
000002c0: 20d4 d23e 819a b23d a562 75be 52c5 9b3e
000002d0: 4f9c d33d 9af0 c73d 225f e93d 4aa9 33be
000002e0: dcaf 44be 9c72 5cbd 2a06 453d f0c0 dbbe
000002f0: ff93 59be 5b62 8c3e 9c99 67be 19ff a4be
00000300: 6ea8 2e3f 1af4 9c3e 87f5 b4bc 9296 55be
00000310: 629d 603d 0cd4 f73e 8827 e1be 6252 b6bd
00000320: e21d 023d 8751 483e c989 a1bd bee4 653d
00000330: 6eda 1b3e 04e0 b53e e09f 853e 5a5f 363d
00000340: 6d6c 023f 2bba 193e d406 d33e 69a6 7e3d
00000350: 2444 683d 3437 7d3e ee95 82be da93 a93d
00000360: a74c 1cbd b05d 973e d88d f63d 1c52 c23e
00000370: 2ff2 ebbc 0aa9 6b3d aac7 52be a2b3 913d
00000380: 351b 0c3e d6f1 2c3e c892 7a3d 2812 0f3e
00000390: f984 f4bd 77c2 863d 129a 453e 6fac c53e
000003a0: 4054 c9bd 1971 653e de8f 2f3e 41fd c3be
000003b0: 647b 473e e2c4 88be 0754 ad3d 843d 403e
000003c0: 375e 4c3e 4d20 e53d da1f 7e3d f7b4 913e
000003d0: 2f36 20bf 927d fd3e 21a6 343e 3c41 e23c
000003e0: 3203 55be 0f72 c5be e696 1cbf 28ca 14be
000003f0: d6f8 c7be 6491 0f3e c6f9 7bbe 491a 193e
0.38265973 0.20307527 0.099204294 0.30164537 0.2783725 0.2680592 -0.0413927 -0.3130667
-0.007015911 0.12964515 -0.20534053 0.33866888 0.08183876 0.2265317 -0.039132092 -0.03255919
0.1006115 0.27411515 0.243775 0.17281033 0.11310162 0.2027446 -0.043191858 -0.20872259
-0.4012268 0.14461124 -0.14915322 -0.052791987 0.1313897 0.14498998 -0.19875741 0.123300366
0.40514037 0.15065765 0.07750465 -0.077211976 -0.06323434 0.04661946 0.19507527 0.01966795
0.08045268 0.1578528 0.14320605 0.011365768 0.19930266 -0.118638694 0.11734861 0.18515135
0.07034398 0.26933014 -0.2586083 0.28723946 -0.13734715 0.44267684 0.09664599 -0.22669518
-0.17813814 -0.14689575 -0.03235764 -0.34700167 -0.0146728335 0.13481164 0.07345128 0.03130856
0.22947133 0.18908535 0.32250896 0.5846621 0.26358768 0.33348328 0.10584624 -0.30374968
-0.22307198 0.1116597 -0.1407493 0.18590322 0.33663252 0.24753407 0.16736865 0.12748572
0.19412784 0.19179428 0.48762602 0.15347052 0.14456356 0.26889512 -0.19238952 -0.02543752
0.117952295 0.15300716 0.17034678 0.22233185 -0.05785399 0.14255144 0.19062205 0.21218047
0.22396873 0.12702018 0.16196707 0.07810052 -0.055977665 -0.08829804 0.19314356 0.1898561
0.10973058 0.17158554 0.054348603 -0.09061654 0.08244199 -0.16025066 0.13268292 -0.055282176
0.421126 0.35380682 -0.13208136 0.15774554 0.18247825 0.5548096 0.07486084 -0.08680757
-0.13145474 -0.10802939 -0.25711584 -0.38109693 0.0063648648 0.1118182 0.07402994 -0.0712036
0.24922863 0.23189689 0.42922896 0.5506047 0.26933467 0.2681555 -0.14437252 -0.12512872
-0.079957396 0.116216384 -0.43849418 0.24446532 0.36724776 0.034539647 0.08383689 0.2046411
-0.079441264 0.06186402 -0.048580132 0.022860866 0.13521601 0.2597141 -0.49551392 0.2133683
-0.018663784 0.2608849 -0.29511762 -0.19307499 0.14466304 0.21094081 0.32986146 -0.037902493
0.16939995 0.19025084 0.26039538 0.27602544 -0.3153124 0.17038856 0.23241012 0.19692995
0.03554407 0.15617417 0.13137913 -0.09669951 0.14213528 -0.11267444 0.14572555 0.2820573
0.41177464 0.087208755 -0.23963411 0.3042398 0.10332548 0.09762688 0.11395098 -0.17545047
-0.1920771 -0.053820238 0.04810158 -0.42920637 -0.21247862 0.2741879 -0.22617191 -0.32225874
0.68225753 0.30654985 -0.022089733 -0.2085822 0.054837592 0.48403966 -0.43975472 -0.08902432
0.03176678 0.1956235 -0.078876086 0.05612635 0.15220043 0.35522473 0.26098537 0.044524528
0.50946695 0.15012424 0.41216147 0.06217042 0.05670561 0.2472809 -0.25505012 0.082801536
-0.03815904 0.29563665 0.12038773 0.3795327 -0.028802006 0.057534255 -0.20583978 0.0711434
0.13682254 0.16889128 0.061175138 0.1397177 -0.11939425 0.0658006 0.19297054 0.3860812
-0.098305225 0.22406425 0.17144725 -0.38279155 0.19480664 -0.2671271 0.084632926 0.18773466
0.19957815 0.111878015 0.062042095 0.28458378 -0.6258268 0.49509865 0.17641498 0.027618997
-0.20802 -0.38563582 -0.6116775 -0.14530241 -0.39057034 0.14020306 -0.24607 0.14951433

fc3.bias f4 [4]
00000000: 62ca 9d3e 640d 863e a136 113e 928f 3d3e
0.30818468 0.2618209 0.14180996 0.18511799
